data.pth (torch, 10135 bytes, 6 tensors)

l1.weight f4 [8, 142]
00000000: f407 7c3e 597b ffbe 2f20 863f e8c5 03bf
00000010: 3f69 2ebf da96 74bd 04ad a53e dbf6 2fbf
00000020: 5058 353f b7d8 f6be b56c 333f 2659 99bd
00000030: 97e0 393f 13a9 c03f ef76 2fbf e67d ef3e
00000040: 57e3 1e3f 633b 333f e016 223f 9b17 6f3f
00000050: c4eb 66bf f9d1 733f 54bf 453f f738 8fbe
00000060: c4d5 583f 8912 2c3f 04cf 5f3f cfff 913f
00000070: 4a83 85be 46ae 10bf 6707 293f d6eb f73e
00000080: 5f48 1d3f da69 2ebf f79c ec3e 1350 06bd
00000090: d4b2 3ebf 6b8a 8dbe e878 edbd 650c 313f
000000a0: f802 ef3e 78a2 133f 7dc2 85bf afa1 363f
000000b0: b41d 49be 3efc e5be c449 4a3f 710e 763e
000000c0: 91f9 cf3e 8539 43be e950 8b3e f67e ad3e
000000d0: a512 bbbe 01a2 7dbe 8fc9 dd3e 8595 0f3f
000000e0: e742 053e f656 2e3f 9261 c0be 1306 4b3e
000000f0: aef8 ed3e 2138 2fbe 29a1 dd3e 7fc0 233f
00000100: ca88 3a3f 40dd 4b3f 7509 7a3e ce09 f5bc
00000110: 5ae6 9b3e 0b01 893f c142 723f c10d 803f
00000120: 5918 55be 7a5b 2ebf 074e 8d3e 2313 583e
00000130: 2f82 fcbe 7ef1 0b3f 1dc1 143f 99c4 c63e
00000140: 04a0 e23f 3d59 1b3f 6344 f73e 4107 e13e
00000150: 9cae cebe 3c73 813f 53fb 1cbe aa90 72be
00000160: 4165 3c3f 2260 31bf e264 653f 3a27 373f
00000170: 8779 b63e 5ac5 11be 29b6 2bbe 451a 5b3e
00000180: 3221 303f 0acf 4f3f 71b9 51bf 7f04 8f3f
00000190: 618d 2bbf 78d3 55be 729e cf3e 44b4 debe
000001a0: ce4c 1a3f 184f a33f 181e 1cbf 26a4 f9bd
000001b0: b8b7 ed3e cf33 443f 44c9 08bf d218 1a3f
000001c0: 9882 583f 8595 303f 2e8a 64be d937 5ebf
000001d0: 039f 04bf fbdd 963f 3927 f83e b889 a3be
000001e0: 73a3 1fbe 5284 303f 9f06 a5be 3680 863f
000001f0: 81cc 523f dfc1 ac3f b0c1 e13d 01b3 39bf
00000200: c779 673d 252c 9ebd 1f98 14bf 8300 a13f
00000210: ecf3 76bf 72db 93be 2ab2 c43e fe94 c63e
00000220: 3d10 18bf 30bd 1c3f 27c5 a53e 065d 44bb
00000230: c4fa 37bf 3b09 b6be 7ef4 c0be 470b d53e
00000240: ba88 b23c d9cf 81bd 56b3 13be 457d 96be
00000250: 75f0 5bbe 9dca 1b3f e78e 4dbf 9147 68bd
00000260: ba5e 383f 6e83 023f 61eb 453f 994a 3b3f
00000270: fdf0 ac3e 7f28 0abe e66a 1fbf 2bb3 703e
00000280: 21f9 1b3f 230e d83e ada3 e23e fea1 bebe
00000290: f462 313e d018 9cbe 18a7 2bbf 7987 82bf
000002a0: 0e2b dd3e 6362 953f 0d53 123f a53e 0d3f
000002b0: cb62 303f 2863 d03e 6e89 2d3f ac43 4dbe
000002c0: ab6d 05be 7dca d4be f173 183f d4e9 cfbd
000002d0: 7209 213f 866f a8be dda3 bf3d ca14 ff3e
000002e0: 0e22 65be d865 223f 2e65 6dbe 545a 39be
000002f0: 1ce2 70bf 71e4 2d3f 9e35 9e3f 117f 793d
00000300: d47f 4a3f 3fcc 493f 6e30 773f 9457 143f
00000310: f386 3b3f b2ca 3b3f 97dd cdbe 5d54 9e3e
00000320: b03a 96ba 4edf e9bd 1632 123f 0281 0abd
00000330: 65b7 9abe 4b15 833c dfe9 c23e a1e3 f43e
00000340: 5331 48be 1520 eabe 9cc0 42bf 2829 ecbc
00000350: 49c9 cb3e 2488 84bf 262b 9a3d a68c 29be
00000360: 63f9 71bc 4749 06bf f124 e2be ff45 453f
00000370: daf5 d03e 0fba 3fbf 73f3 46bf f9e3 533f
00000380: 47d4 383f 963c 52bf 9a5f c53e 2748 843e
00000390: cb53 1f3f 7729 85bd cb26 7e3e 44a6 0b3f
000003a0: 01e5 a03d dad2 cc3e a2e4 2fbd 1b7c 0bbe
000003b0: e8de ef3e 58e4 383f 6a0b 943e 1c05 2d3f
000003c0: a44d 463f d407 5abf f571 003f 8679 7a3d
000003d0: 547e bcbe 36bb 8cbd 9df7 533f 82c1 8bbf
000003e0: a77f b03e 758b eabe 322c b43e 3fee 183f
000003f0: b078 3cbd 997a 423f 27e8 283f 46d2 3b3e
0.24612409 -0.49898794 1.0478572 -0.51473856 -0.6812934 -0.059714176 0.32358563 -0.68736047
0.7083788 -0.48212215 0.7008775 -0.07487707 0.7260832 1.5051597 -0.68540853 0.4677574
0.62065643 0.7001249 0.63316154 0.93395394 -0.902035 0.9524227 0.7724507 -0.27973148
0.8470118 0.6721578 0.87425256 1.1406192 -0.26076728 -0.5651592 0.6602692 0.48422116
0.61438555 -0.68130267 0.46213505 -0.03279121 -0.7449162 -0.27644667 -0.11595327 0.6915954
0.46681952 0.5766978 -1.0449978 0.7134046 -0.19640237 -0.44919008 0.7901881 0.24028946
0.40620092 -0.1906491 0.27210167 0.33885926 -0.36537662 -0.24768831 0.4331784 0.56087524
0.13013802 0.6810144 -0.3757444 0.19826536 0.4647879 -0.17111255 0.43287018 0.639656
0.72864974 0.79634476 0.2441767 -0.029911902 0.30449182 1.0703443 0.9463311 1.0004197
-0.20810069 -0.6810833 0.27598593 0.2110105 -0.49318072 0.5466536 0.5810717 0.38821867
1.7705083 0.6068304 0.48294362 0.43950847 -0.4036759 1.0113292 -0.15330248 -0.23687997
0.73592 -0.6928731 0.8960706 0.7154423 0.35639593 -0.1423544 -0.16768707 0.2139674
0.6880065 0.8117529 -0.81923586 1.1173247 -0.670126 -0.2088145 0.40550572 -0.43496907
0.60273445 1.2758512 -0.6098342 -0.12189512 0.4642923 0.76641554 -0.53432107 0.6019412
0.8457427 0.6897815 -0.22318336 -0.86803967 -0.5180513 1.1786493 0.48467425 -0.3194101
-0.15589695 0.68951905 -0.32231614 1.0507877 0.823433 1.3496665 0.11023271 -0.72538763
0.05651262 -0.07723264 -0.5804462 1.2578281 -0.96465945 -0.2887836 0.38417178 0.38785547
-0.5939978 0.6122618 0.32376978 -0.0029962673 -0.7186701 -0.35553917 -0.37686533 0.41610166
0.021793712 -0.06338472 -0.1442388 -0.29392448 -0.21478446 0.6085604 -0.80296177 -0.056708876
0.7201954 0.50981796 0.77312285 0.731607 0.3377761 -0.1349201 -0.6227249 0.23505847
0.60927016 0.42198285 0.442655 -0.37232965 0.17322904 -0.3048768 -0.6705184 -1.0197593
0.4319691 1.167065 0.57157975 0.5517371 0.68900746 0.4070065 0.67787826 -0.20045346
-0.13030116 -0.41560736 0.5955191 -0.10152021 0.6290504 -0.32897586 0.09357426 0.49820548
-0.22376272 0.6343665 -0.23183128 -0.18100864 -0.94095016 0.679267 1.2360113 0.060912196
0.791013 0.7882728 0.9655827 0.57946134 0.7325279 0.73356164 -0.40208122 0.3092374
-0.0011461582 -0.11419545 0.57107675 -0.033814438 -0.30218044 0.016001364 0.38069054 0.47829917
-0.19550066 -0.45727602 -0.7607515 -0.028828219 0.39802006 -1.0354047 0.07527761 -0.1655756
-0.014768931 -0.5245556 -0.4416881 0.7705993 0.4081257 -0.7489328 -0.77715224 0.82769734
0.7219891 -0.82123697 0.385495 0.25836298 0.6223723 -0.065020494 0.24819486 0.54550576
0.07856179 0.40004617 -0.04294265 -0.13621561 0.4684975 0.72223425 0.28914958 0.6758592
0.7746222 -0.85168195 0.50173885 0.06115105 -0.3681513 -0.06871645 0.827997 -1.0918429
0.3447239 -0.45809522 0.35189968 0.59738535 -0.046013534 0.7596832 0.65979236 0.18341932

l1.bias f4 [8]
00000000: 88f4 dc3f 7fff c83f b497 4d3f be08 723f
00000010: 99b7 9c3f d77c 2f3f 7c3e 563f e1fd fa3e
1.7262125 1.5702971 0.80309606 0.9454459 1.224353 0.68549865 0.83689094 0.4902182

l2.weight f4 [8, 8]
00000000: 6a5c 34be 6e57 b5bf bcd0 3dbe 0418 2e3f
00000010: 9d8a cd3f 09d5 2740 369b e03f e64e 0040
00000020: 851f 41bf 20af 993f d7d8 5ebf d499 943f
00000030: 10b0 833f 5ffe 1b40 5f8c ca3e 2f9a aabf
00000040: 3293 73bf eaf7 0040 ec4e ae3f 8cea 543f
00000050: 05fd bd3e 7b10 283e 2c7f 323f e1b8 2fbf
00000060: 6a4e 733f 874c 0440 cfe3 323f 1a72 1840
00000070: 089d 71bf c8fd f6bf 9be2 2a3f f706 36be
00000080: 303c 8b3e 67a5 833f 3479 9b3f 2f19 25be
00000090: 30d9 9e3f 5551 e63f 6ec2 02c0 539c ab3f
000000a0: 7c8c 2d40 dcab 623f 6177 d6be b71a 7dbf
000000b0: df26 c93f 4118 89be 1ccf d53e 7958 96bf
000000c0: 0358 4a3b 239d 123f 72be b43e 19e8 babf
000000d0: 508f a83f 33d6 5abf 5cfe e43f 1212 cf3f
000000e0: d2eb 113f 3457 71be 494e 1f40 fb47 b83f
000000f0: b872 543f 4627 92bf 5a2c bdbf f590 ac3f
-0.17613378 -1.4167306 -0.18536657 0.68005395 1.6057926 2.6223776 1.7547367 2.0048156
-0.7543872 1.2006569 -0.8704962 1.1609445 1.0288105 2.4374006 0.3956022 -1.3328303
-0.9514648 2.0151315 1.3617835 0.8317039 0.371071 0.16412537 0.697253 -0.6864148
0.95041525 2.0671709 0.6987886 2.3819642 -0.94380236 -1.9296198 0.6675202 -0.17776094
0.27194357 1.0284852 1.2146363 -0.16122888 1.241003 1.799357 -2.043117 1.3407081
2.7116995 0.88543487 -0.41887954 -0.9886889 1.5714988 -0.26776317 0.41759574 -1.174575
0.0030875213 0.5727102 0.35301548 -1.460208 1.3168736 -0.8548309 1.7890124 1.617739
0.5700046 -0.23568422 2.4891531 1.4396967 0.82987547 -1.1418235 -1.477916 1.3481737

l2.bias f4 [8]
00000000: 4350 e23d 2778 0e3e a8c9 0e3c aab1 883f
00000010: 0a5a ebbd c76c 943f b0fd 553d ba11 28be
0.11050465 0.13913022 0.008715071 1.0679219 -0.11491783 1.1595696 0.05224389 -0.16413012

l3.weight f4 [32, 8]
00000000: 273f d2be 56b7 c53e c19d e03e 418d 60be
00000010: 7e2f 23be fa0b 3abf 59a8 82bd bded cebf
00000020: a9fc e93e 61de 33be 9684 23c0 8fe5 a5bf
00000030: 054d 023f c39d f0bf 2a80 563e aaee 5ebf
00000040: 6acf 8b3d bb08 b1bf 266b 21c0 4e60 03c0
00000050: 5b9c 5ebe 641b cf3e b11a 063e 9dbf a7be
00000060: 96ef 8d3e 35fe 01c0 15ed 9fbe 0bcb 033e
00000070: 609b a7bf 4a4d 59bf 9615 2c3f cf13 e6bf
00000080: 4c27 cdbf 7d41 acbf 05ff 133e dfd5 0e3f
00000090: c5a4 b73e 5f2a c8bf f014 88bf d9ee 2f3f
000000a0: cc3f 19be 8746 fbbf a421 73bd 28e5 28be
000000b0: b60e fa3e 2efb 2cc0 a7c4 b8be 1b3d 143f
000000c0: 0519 d63e 85d4 dfbf 11f5 2cc0 96c2 0fbf
000000d0: 5981 d6bf 2443 b03e c50f ae3e 61ff 07c0
000000e0: 60a4 243e 13c4 aabf 485b bebf 5e26 dcbf
000000f0: c718 273f 8723 1ebf 6915 8dbf 98ac 2e3f
00000100: d9e3 41c0 5140 c7be 3146 1cbd 1ea9 163f
00000110: c71d a53e 32a2 4fbc 392b 53c0 a9b3 e43e
00000120: 8f25 5cbe b1d4 4cc0 089d 45bf 1593 6f3d
00000130: 34db 0fc0 9f28 1b3f 8dbd 40bc 286d edbc
00000140: cda0 11c0 801c 2ac0 495a 25c0 fd9f 3b3f
00000150: f794 d9bf 6f02 6d3f 1dc5 443d d0c7 8ebf
00000160: d30d 32bd 7fc8 ec3d 8cb4 1ac0 2929 e8bf
00000170: cf96 ad3e 6ffe 443f b662 71bf ef0a e6bf
00000180: 86b9 48c0 87a0 04c0 5bd0 26be 27d0 76bd
00000190: c9c6 ee3e fa44 103f e9ba 0fbe dae9 033d
000001a0: 3d16 fcbe 4b8f cabe 4787 033f 5278 213f
000001b0: a6ea 02c0 f0b6 87bf 1e7e 9bbd e70f 18bf
000001c0: 1f36 99bf 0388 573e 4830 563e b7c4 ebbe
000001d0: 7ac9 303f 69cc b7bc e212 ccbf 8656 87be
000001e0: f54a 77bf 8b5e 703f d17f 83be 2d08 57bf
000001f0: 3cdd f13e 0bb6 673e f07d 20bf a8ca 36c0
00000200: 9da2 55bf 62b7 1a3e 6435 043f 238b 7abe
00000210: 4ce9 073f ac45 08c0 8722 d0bf 80f0 093f
00000220: ea53 b7be 82b2 16bf db55 623d 0d05 3b3f
00000230: 96c8 70bf 62ba b2bf 7a39 62c0 808f 113f
00000240: 7c04 3f3d 26ce e8be 2995 f9be ef2f a4bf
00000250: 0fdf b6bd 8c4a eebe 337c ccbd e1d5 843d
00000260: 0c4f dabe a7be 93bf fbae f7be 3b13 dabe
00000270: f8f8 a43e 5629 ed3e 36f1 4cbe 564d 87bf
00000280: 3baa 803c 7d7c 073f 845e c23d 1c8f 9f3e
00000290: ae78 853d 3b9f 83c0 7021 62bf fb1a e0be
000002a0: 4f23 dfbe 9e58 0bbf 0e0d 18c0 7e4c c43e
000002b0: 0cfe 5abe 24cb 733f dda3 05c0 4017 e3bf
000002c0: 0c14 903d 741b d13e 8892 dfbe 1c74 21bf
000002d0: c181 17c0 fddf e43e a9d0 20bf e659 b8bf
000002e0: af59 53bf 9d76 0ec0 2072 93be f527 84be
000002f0: 74a7 c23e e308 07bf 7f14 14bd 7dea cd3e
00000300: d6d1 9ebd ffe3 363f cc7a 523f 8051 5b3e
00000310: 8353 bcbd 054d 2cc0 1797 3fbf abaf 33c0
00000320: 8690 043f c0ac 983d 1312 85bf 32a8 fcbf
00000330: 8f3b cbbf a91c 09bf 390b e33e 5643 d7bf
00000340: c7ff 06c0 ca3b e1be 5598 873e e14a 0d3f
00000350: b4ee 31bf 0b04 df3e afc3 183e ad4c 12c0
00000360: 0c4f ba3e 1afc 0a3f 124c 36bf 1453 aebe
00000370: e5f1 b73e 8771 99bf 832e b3bf ffd3 55bf
00000380: 0018 f4be e5fa 24c0 6930 b0bf d4d0 d43e
00000390: cc07 123e 2f36 5b3e 7f1b 29c0 0dab 443f
000003a0: 75c4 bd3e 10b7 9c3c 1139 b63e 47d6 c4bf
000003b0: 1f1a 9b3c 47da 2dc0 1b62 843e 1d5a b2bf
000003c0: 2b07 c3bf bfcf 073f 96ac 1e3f 3e9b 573f
000003d0: bb31 33bf f0c2 86be e134 0dc0 10e9 d7bf
000003e0: 43b7 b3be 30af efbe 8d59 343c 74ff 863d
000003f0: 341f c53c cd8d 9bbf a255 28be 2aa4 b63c
-0.41063806 0.38616437 0.43870357 -0.21928884 -0.15936086 -0.72674525 -0.06379766 -1.6166302
0.45700577 -0.175653 -2.5549674 -1.2960681 0.5089877 -1.8798145 0.20947328 -0.8708292
0.068266705 -1.3830789 -2.5221648 -2.052753 -0.21739332 0.40450585 0.1309612 -0.32763377
0.27721852 -2.0311406 -0.31235567 0.12870423 -1.3094292 -0.8488356 0.6722044 -1.7974795
-1.6027617 -1.3457485 0.14452751 0.5579509 0.35867897 -1.5637931 -1.063139 0.6872383
-0.14965743 -1.9630898 -0.059358254 -0.16493666 0.4883935 -2.7028308 -0.36087534 0.5790574
0.41815963 -1.7486731 -2.7024577 -0.5615629 -1.6758224 0.34426224 0.33996406 -2.124962
0.16078329 -1.3341087 -1.4871607 -1.7199209 0.6527218 -0.6177296 -1.1022159 0.6823211
-3.0295317 -0.38916257 -0.038152877 0.588518 0.3224928 -0.012672948 -3.299513 0.4466832
-0.21498702 -3.2004817 -0.77192736 0.058489878 -2.247754 0.6060886 -0.011763942 -0.028982714
-2.2754395 -2.6579895 -2.5836356 0.73291 -1.6998585 0.9258184 0.048039544 -1.1154728
-0.043470215 0.11561679 -2.4172697 -1.8137561 0.3390412 0.76950735 -0.94291246 -1.7972087
-3.1363235 -2.0722978 -0.16290419 -0.060257103 0.46636036 0.5635525 -0.14036144 0.03220544
-0.49235716 -0.3956245 0.5137829 0.6307422 -2.0455718 -1.0602703 -0.07592414 -0.59399265
-1.1969641 0.21047978 0.20916855 -0.4604852 0.6905743 -0.022436338 -1.5943263 -0.264332
-0.9659875 0.9389426 -0.25683454 -0.8399685 0.472391 0.22628038 -0.62692165 -2.8561192
-0.83451253 0.15109017 0.5164397 -0.24467139 0.5309036 -2.1292524 -1.6260537 0.538826
-0.3580621 -0.5886613 0.05525766 0.7305458 -0.9405607 -1.396313 -3.534758 0.5685959
0.046635136 -0.4546978 -0.48746613 -1.2827128 -0.08929264 -0.4654125 -0.099846266 0.06486107
-0.42638433 -1.1542557 -0.48375687 -0.42592797 0.32221198 0.463206 -0.2001389 -1.0570476
0.015706172 0.5292433 0.09490684 0.3116387 0.065171584 -4.1131873 -0.8833227 -0.43770584
-0.43581626 -0.54432094 -2.3757968 0.3833961 -0.21385974 0.95231843 -2.0881264 -1.774147
0.07035074 0.40841258 -0.43666482 -0.63067794 -2.3672945 0.4470214 -0.6281839 -1.4402435
-0.8255872 -2.2259896 -0.28798008 -0.25811735 0.38018382 -0.52747935 -0.03615236 0.40217963
-0.07754867 0.71441644 0.82218623 0.21417809 -0.09195616 -2.692201 -0.7483992 -2.807597
0.51783025 0.074548244 -1.0396141 -1.9738829 -1.5877551 -0.53559357 0.443445 -1.6817424
-2.1093614 -0.43990928 0.26483408 0.5519238 -0.6950486 0.43557772 0.14918397 -2.28593
0.36388433 0.54290926 -0.71209824 -0.3404776 0.35926738 -1.1987771 -1.3998569 -0.83526605
-0.4767456 -2.5778134 -1.3764774 0.41565573 0.14260787 0.21407388 -2.6423032 0.768235
0.37063947 0.01913026 0.35590413 -1.5377892 0.018933354 -2.7164476 0.258561 -1.393375
-1.5236562 0.5305137 0.61982095 0.84221256 -0.6999776 -0.263206 -2.2063525 -1.6868
-0.35100755 -0.46813345 0.011007679 0.065916926 0.02406273 -1.2152649 -0.16438916 0.022295076

l3.bias f4 [32]
00000000: 57fb e9be 8b89 7d3d 5850 a63d 4896 da3e
00000010: c0c4 18be 1232 29be 7826 ae3c 5bdf ac3d
00000020: 524e e13d 7928 0e3f d5e6 f53e b7d9 82be
00000030: 0bda 333d 87cc 94be d692 363e 91fd 043d
00000040: 4e21 febe b1d3 59bd 0947 c0be 0d9c 87be
00000050: 5b0b 85be 4bcd ee3e b2c8 85be 1063 49bf
00000060: e2f5 22be 32b6 c33e 982d 3b3e de00 3e3d
00000070: bac6 093e 4880 813e ba1f 1abe 8373 97be
-0.4569957 0.06189875 0.08120793 0.4269278 -0.14918804 -0.16523007 0.021258578 0.08441039
0.110012665 0.55530506 0.48027673 -0.25556728 0.043909114 -0.29062292 0.17829451 0.032468382
-0.49634784 -0.0531804 -0.37554196 -0.26486245 -0.25985226 0.46641 -0.2612968 -0.7866678
-0.1591411 0.38224941 0.18279111 0.046387546 0.13454714 0.25293183 -0.15051165 -0.29580316
