data.pth (torch, 198223 bytes, 8 tensors)

l1.weight f4 [8, 4084]
-0.0077000987 -0.00955584 -0.015063935 0.4777982 0.009400433 0.014363781 -0.0041681817 0.0051358864
0.015209924 -0.0121070845 -0.008788426 -0.17477049 -0.00092357397 0.012594726 -0.0011228891 0.0049976
0.0018228963 -0.015113013 -0.008763852 0.014499871 -0.008172282 -0.012153892 -0.008453496 -0.007674819
0.006675558 0.0101791825 -0.014841208 -0.0052626273 0.008627258 -0.010879909 0.003112264 0.003089225
-0.0009255586 0.008542499 -0.007110689 -0.012789989 -0.013451168 -0.009924238 0.011556581 -0.0052200686
-0.011098548 -0.0138731 -0.01209015 0.003492603 -0.00787298 0.005919989 0.009766078 -0.006955648
0.0099679455 0.0068653543 0.0077976435 -0.009111945 -0.015036473 -0.010321327 -0.011712374 0.009825883
-0.0015423857 -0.013244654 0.0075753164 -0.006745466 0.1541122 -0.01000358 -0.0109160375 0.005579943
0.009031072 0.0017549731 -0.011372669 -0.013904475 -0.014931935 -0.0017108293 -0.0039282115 0.009229954
-0.008720976 0.0066170543 0.010208137 0.009796411 -0.01381824 -0.0048659863 -0.010692345 -0.014609747
-0.0062580034 0.015631324 -0.000988638 0.0010725427 -0.0078532165 -0.010448284 0.0057354104 0.0059203785
0.005821312 0.0069413036 -0.006857829 0.014718987 0.004421115 -0.012650229 0.0015784744 -0.015587504
0.0043106824 -0.012536581 0.010447124 -0.0003390126 -0.0155064585 0.006692877 0.002833631 -0.005902649
0.014530279 0.009157332 -0.010352958 0.0063072126 0.0064488016 -0.0049016 -0.0059958436 0.0012617838
-0.0014468199 -0.00838854 -0.013435895 -0.0015776465 -0.009326141 0.0019876268 0.01498566 0.011663316
0.015237657 -0.0024171388 0.009721255 0.0075971354 -0.008750027 -0.012534295 0.00010839291 0.003730975
0.0028660428 0.8049055 0.013728805 -0.010805825 -0.0067530675 0.0035876296 0.0057257228 -0.014152486
0.011882147 -0.0013200697 0.007468531 -0.013329055 -0.015642354 -0.0034672273 0.010812193 0.013687843
0.0037506558 0.015386401 0.010598589 -0.00012907665 -0.007857913 -0.0035017505 0.008886291 0.808633
0.00023050606 -0.003804951 0.0054530427 0.009083347 0.014179574 -0.0016700914 -0.015584286 0.008608345
0.003606176 -0.007914649 0.00035198778 -0.014862052 0.010451535 -0.012733044 0.0066775717 -0.0039133746
-0.010264076 -0.006418803 0.015465474 -0.0018818714 0.0054865647 0.005166754 0.012446489 -0.015551671
0.010335419 -0.0019549793 0.0014775489 0.0073786676 -0.1397741 0.004473893 0.0023785494 0.013012096
-0.0033370433 -0.0037201755 0.012036372 0.0034101494 0.008996354 -0.0046095 0.01321679 0.003512837
-0.0019654837 0.000527231 -0.0016320059 -0.0010176543 -0.0037852172 0.0146662295 -0.001975053 0.0022237431
-0.01475882 -0.007827877 0.013957439 0.0014078245 -0.0029295916 -0.00095440075 0.4736013 -0.0020451667
0.012461446 0.0039568767 -0.004964404 -0.0070821894 0.004929239 0.00791477 0.0073506776 -0.0041180365
-0.0025394866 0.002887912 -0.004921996 -0.0133930845 0.012356019 -0.0013449127 -0.01048751 -0.012659533
-0.008648493 -0.005568276 0.00997307 0.014747458 -0.0049201827 -0.015009663 0.0004897639 0.007036181
0.007692894 0.015079465 -0.009402099 -0.011344765 0.00910506 0.0040740594 -0.0039887335 -0.013909826
0.012167765 0.014233448 -0.0093067335 -0.015574775 0.0054354146 -0.008216029 0.0035563558 -0.011259517
0.015186204 -0.0056389607 -0.0100788195 -0.007719732 0.009723758 0.0076837167 -0.011433454 0.0063132197
00000000: 1c51 fcbb 1990 1cbc b9ce 76bc f7a1 f43e
00000010: 4604 1a3c 1056 6b3c 3e95 88bb f04a a83b
00000020: 0c33 793c cb5c 46bc 55fd 0fbc 09f7 32be
00000030: 001c 72ba 1c5a 4e3c e82d 93ba e8c2 a33b
00000040: 40ee ee3a 929c 77bc 4296 0fbc de90 6d3c
00000050: 09e5 05bc 1e21 47bc 8880 0abc 0c7d fbbb
00000060: a4be da3b 96c6 263c 8a28 73bc 1e72 acbb
00000070: 5859 0d3c a541 32bc 20f7 4b3b 9874 4a3b
00000080: 30a1 72ba d6f5 0b3c c800 e9bb 1a8d 51bc
00000090: 4a62 5cbc 4599 22bc d057 3d3c 1c0d abbb
000000a0: afd6 35bc 004c 63bc c415 46bc 28e4 643b
000000b0: acfd 00bc 78fc c13b e601 203c 34ec e3bb
000000c0: 9850 233c c4f6 e03b 6083 ff3b 444a 15bc
000000d0: 8a5b 76bc c81a 29bc 42e5 3fbc befc 203c
000000e0: e029 caba 1b00 59bc 5c3a f83b 1209 ddbb
000000f0: 97cf 1d3e 0ee6 23bc 2ed9 32bc f4d7 b63b
00000100: 10f7 133c 2007 e63a 6e54 3abc 98cf 63bc
00000110: 13a5 74bc e83d e0ba 3ab8 80bb 3c39 173c
00000120: 6de2 0ebc e0d3 d83b 0840 273c 2081 203c
00000130: e665 62bc da72 9fbb f22e 2fbc b85d 6fbc
00000140: f00f cdbb 430d 803c 3095 81ba 9094 8c3a
00000150: c7aa 00bc 482f 2bbc 1cf0 bb3b bcff c13b
00000160: b4c0 be3b e073 e33b a4b7 e0bb e827 713c
00000170: 00df 903b e842 4fbc d0e4 ce3a bb62 7fbc
00000180: a040 8d3b 3b66 4dbc 6a2a 2b3c 80bd b1b9
00000190: cd0e 7ebc ec4f db3b 70b4 393b 026b c1bb
000001a0: 6810 6e3c a208 163c 749f 29bc bcac ce3b
000001b0: 7850 d33b 9a9d a0bb c878 c4bb 7062 a53a
000001c0: 38a3 bdba 1670 09bc 3a22 5cbc 08c9 ceba
000001d0: accc 18bc d842 023b 6a86 753c 7e17 3f3c
000001e0: 5ea7 793c dc68 1ebb e645 1f3c 64f1 f83b
000001f0: 465c 0fbc a55c 4dbc 0051 e338 6083 743b
00000200: 38d4 3b3b 490e 4e3f c8ee 603c ea0a 31bc
00000210: d648 ddbb 701e 6b3b d89e bb3b d4df 67bc
00000220: 56ad 423c 3006 adba 94ba f43b 1c62 5abc
00000230: 6524 80bc 6c3a 63bb a025 313c fa42 603c
00000240: 90cd 753b 3e17 7c3c b4a5 2d3c c058 07b9
00000250: 7abe 00bc a07d 65bb ce97 113c 9302 4f3f
00000260: 00b4 7139 7c5c 79bb 70af b23b 52d2 143c
00000270: 7251 683c f8e6 daba 3c55 7fbc 040a 0d3c
00000280: 9855 6c3b 72ac 01bc 008b b839 f77f 73bc
00000290: ea3c 2b3c 429e 50bc 88cf da3b c43b 80bb
000002a0: a82a 28bc d254 d2bb e662 7d3c 20a9 f6ba
000002b0: a4c8 b33b e04d a93b 5cec 4b3c 70cc 7ebc
000002c0: e455 293c 1c1f 00bb 50aa c13a c0c8 f13b
000002d0: f120 0fbe bc99 923b 70e1 1b3b b030 553c
000002e0: 4cb2 5abb 30ce 73bb 3434 453c d07c 5f3b
000002f0: 7265 133c 4a0b 97bb 3c8b 583c a037 663b
00000300: 58cf 00bb e035 0a3a 08e9 d5ba d062 85ba
00000310: 6811 78bb a04a 703c e46f 01bb 38bc 113b
00000320: face 71bc 7f40 00bc bead 643c c086 b83a
00000330: 64fe 3fbb c030 7aba df7b f23e 3408 06bb
00000340: 182b 4c3c b0a8 813b 70ac a2bb b611 e8bb
00000350: 7485 a13b f4ac 013c f4dd f03b 98f0 86bb
00000360: 846d 26bb 2043 3d3b b248 a1bb ab6e 5bbc
00000370: e670 4a3c c847 b0ba ced3 2bbc ee69 4fbc
00000380: 69b2 0dbc 1676 b6bb 1666 233c 529f 713c
00000390: 7c39 a1bb 17eb 75bc 8063 003a c48f e63b
000003a0: ac14 fc3b dc0f 773c 430b 1abc 65df 39bc
000003b0: 642d 153c b07f 853b ecb3 82bb 0ae6 63bc
000003c0: 4e5b 473c 6833 693c 457b 18bc 572d 7fbc
000003d0: 901b b23b 869c 06bc c011 693b d679 38bc
000003e0: 8ecf 783c 08c7 b8bb a221 25bc cef5 fcbb
000003f0: 6650 1f3c b0c7 fb3b 6253 3bbc 20df ce3b

l1.bias f4 [8]
0.38702 0.894268 0.5529489 0.5390515 0.7779737 1.1737773 0.5424773 1.3643682
00000000: 7c27 c63e bfee 643f 0f8e 0d3f 47ff 093f
00000010: 4929 473f 563e 963f cbdf 0a3f 9ea3 ae3f

l2.weight f4 [8, 8]
0.53895843 0.07535052 0.54812527 -1.0681897 -0.26990372 1.3719476 -0.12843974 0.19688334
-1.6454053 -0.32023436 1.0046575 0.7097063 1.8164306 0.8780892 -0.69917876 0.9400177
-0.5601985 1.7167883 -0.9632436 -0.36151183 1.262954 1.6046562 -0.049037516 1.5204184
1.7353714 0.36245447 0.2671888 2.0268877 -0.14326341 -0.8067017 1.789313 0.8028748
-0.086620376 -0.97736734 1.627678 0.5593501 0.80764544 0.3195692 -0.39542377 0.44182527
-0.6711949 0.87372833 -0.8607001 -1.0039041 1.5745336 1.6215793 -0.46324825 1.5794868
1.9069612 1.3275338 1.3214366 1.6500915 -1.0560405 0.53311557 1.849742 0.59444976
0.8284707 1.9840736 -1.0901431 -0.014895352 -0.7021478 1.4232485 1.6448816 1.1260109
00000000: 2ef9 093f 6051 9a3d f051 0c3f 71ba 88bf
00000010: d230 8abe fb9b af3f b585 03be c99b 493e
00000020: a49c d2bf c2f5 a3be 9e98 803f 50af 353f
00000030: cc80 e83f 74ca 603f 61fd 32bf 00a5 703f
00000040: 2b69 0fbf b8bf db3f 2297 76bf 1418 b9be
00000050: 7aa8 a13f 6065 cd3f 90db 48bd 129d c23f
00000060: a620 de3f a293 b93e f8cc 883e 87b8 0140
00000070: a5b3 12be 0184 4ebf 3508 e53f 3489 4d3f
00000080: 0666 b1bd bf34 7abf c157 d03f 9131 0f3f
00000090: dac1 4e3f 939e a33e fc74 cabe ec36 e23e
000000a0: 6ed3 2bbf a9ac 5f3f d756 5cbf ee7f 80bf
000000b0: 518a c93f e98f cf3f e02e edbe a02c ca3f
000000c0: 4e17 f43f a1ec a93f d624 a93f 3336 d33f
000000d0: 562c 87bf 437a 083f 59c4 ec3f dc2d 183f
000000e0: a816 543f 20f6 fd3f cf89 8bbf a20b 74bc
000000f0: f5bf 33bf 022d b63f 7b8b d23f 2021 903f

l2.bias f4 [8]
0.35890582 0.31609014 0.60997874 0.22724201 0.37922338 0.88175577 0.15929659 0.6443752
00000000: 81c2 b73e 91d6 a13e 9127 1c3f 21b2 683e
00000010: 9129 c23e bfba 613f a51e 233e c6f5 243f

l3.weight f4 [8, 8]
-1.210891 0.23205091 0.1368282 1.5801026 0.43041855 -0.46489042 1.016453 0.37971786
-0.16487712 0.13098714 -0.27097115 -0.2660494 0.06380119 -0.09473309 0.0028615524 -0.21062794
0.9858 -0.9205566 -0.08964231 0.2752373 0.23753433 -0.62003446 1.4048616 0.76733845
0.117084354 -0.42022356 -0.0010692138 0.16299622 -0.20691271 -0.123502776 0.03648082 -0.3625533
0.58911127 0.72094154 0.2558531 -0.041592713 0.8226196 0.2963889 0.26296362 -0.61942637
0.056063365 -0.37122035 1.5014368 -0.17939267 -1.4459146 1.2174993 0.0047068917 1.2421858
0.34170294 -1.7061374 -0.078175746 1.2277291 -1.1365235 -0.36908787 1.271021 1.0159249
1.2284998 1.2726212 1.3037728 -0.92261964 0.41491124 1.5633792 -0.29812062 0.4714919
00000000: 7afe 9abf c19e 6d3e b11c 0c3e cd40 ca3f
00000010: d25f dc3e 1e06 eebe 221b 823f 616a c23e
00000020: 8cd5 28be 7e21 063e bbbc 8abe a137 88be
00000030: 33aa 823d 6c03 c2bd e288 3b3b daae 57be
00000040: 645d 7c3f 99a9 6bbf 6396 b7bd e7eb 8c3e
00000050: 333c 733e 94ba 1ebf 81d2 b33f 4b70 443f
00000060: ecc9 ef3d 8b27 d7be dd24 8cba 7be8 263e
00000070: ede0 53be 06ef fcbd ea6c 153d 96a0 b9be
00000080: ffcf 163f a08f 383f 2dff 823e 1f5d 2abd
00000090: 3397 523f 49c0 973e 2ba3 863e ba92 1ebf
000000a0: b3a2 653d 9810 bebe 152f c03f b6b2 37be
000000b0: bb13 b9bf 04d7 9b3f 453c 9a3b f2ff 9e3f
000000c0: b0f3 ae3e b662 dabf 9b1a a0bd 3a26 9d3f
000000d0: 9a79 91bf 16f9 bcbe d1b0 a23f d409 823f
000000e0: 7b3f 9d3f 40e5 a23f 07e2 a63f cd30 6cbf
000000f0: 3f6f d43e cf1c c83f 44a3 98be 6367 f13e

l3.bias f4 [8]
0.12269814 -0.20792602 0.3175132 -0.187241 0.16052495 -0.0109285405 0.38406992 0.15860625
00000000: 2a49 fb3d 8fea 54be 1791 a23e 1bbc 3fbe
00000010: a760 243e 9f0d 33bc d0a4 c43e ad69 223e

l4.weight f4 [22, 8]
0.075280756 0.0894431 -2.1783733 0.064574845 -0.111062884 0.068869635 -1.3309928 0.50612676
0.53372324 0.24842198 -0.047327638 -0.1783103 -0.22145453 -1.027412 0.25935754 -0.7074402
-0.3123136 0.013332408 -1.2758182 -0.3892038 -0.604501 0.66716033 -2.1828065 0.4126976
0.14410207 -0.3340206 0.19294032 -0.04664822 -0.43077523 -0.35688412 0.021424547 -0.1097142
0.245837 -0.22828428 0.5039441 -0.2754752 0.094861366 -1.6138947 -0.0884366 -0.4817299
0.25594643 0.21224113 0.1768269 0.05959439 -1.4374526 0.016315203 0.23565471 -1.5826868
-0.7332254 0.112370655 0.06784876 -0.37514254 -1.2627337 0.36590147 -0.05439218 0.16124794
0.49211496 -0.15073064 -0.7367284 -0.05629241 -0.4317688 0.35933438 -2.1329992 0.16441068
-2.0894902 0.27184403 -1.5899205 -0.46723974 -0.05043609 0.6273391 -1.4444025 0.5011528
-0.037779864 -0.22725339 0.15452708 0.0054471097 -1.17389 0.3443856 -0.12720923 -0.27640754
0.43482563 -0.3556793 0.30926695 -0.2005897 -0.049266886 -0.75580585 -0.6440876 -0.14778852
-0.11854712 0.19997273 -0.33322388 -0.351684 0.45719907 -1.0892013 -0.8690176 0.4219167
-0.1470365 -0.084167704 0.31140816 -0.066080235 -1.6656717 0.17864488 0.25018468 -0.6982329
-0.03487875 -0.30097944 0.17284559 -0.11360348 -0.092943825 -0.38444006 -1.1558135 0.3953146
0.037510186 0.2921477 0.504975 -0.23098068 -0.65321165 -0.5190256 0.25892928 -0.66572607
0.39856988 0.15082638 0.3581214 -0.31851187 -0.87630993 -2.431791 0.50590086 -1.2814828
-0.33942622 -0.109950714 -0.45412153 0.07396094 -0.6235577 0.47041774 -0.7800904 0.31769702
0.5815789 0.0048267995 0.010346113 0.10536494 0.15428048 -0.66136914 -2.0726025 0.04599622
-1.0105023 0.28143743 -1.6445625 -0.37434816 0.31889057 -0.60928655 -0.8880044 0.70872927
0.5335119 -0.2675264 0.40813202 -0.38342643 0.44882962 -1.3366311 -0.49242374 -1.4802672
0.32145274 0.27453014 0.47753465 -0.19848585 -0.66925365 -1.0641237 0.3222242 -1.5413269
0.2164567 -0.14820905 -0.19205847 -0.33493668 -0.25553644 0.20832102 -0.4364558 -0.11218088
00000000: cc2c 9a3d f22d b73d 786a 0bc0 d13f 843d
00000010: f074 e3bd 860b 8d3d f95d aabf 8691 013f
00000020: 16a2 083f 5562 7e3e a0da 41bd fa96 36be
00000030: fac4 62be 3d82 83bf 83ca 843e cd1a 35bf
00000040: 91e7 9fbe 2c70 5a3c 034e a3bf b845 c7be
00000050: 94c0 1abf 05cb 2a3f 1ab3 0bc0 1a4d d33e
00000060: 7e8f 133e c004 abbe 2692 453e 3412 3fbd
00000070: 928e dcbe 84b9 b6be 8882 af3c d7b1 e0bd
00000080: b2bc 7b3e 5bc3 69be 7b02 013f 160b 8dbe
00000090: ad46 c23d 1a94 cebf 401e b5bd 4da5 f6be
000000a0: 690b 833e bd55 593e 1c12 353e 3f19 743d
000000b0: 72fe b7bf 76a7 853c 784f 713e 7b95 cabf
000000c0: a9b4 3bbf 9622 e63d 4af4 8a3d af12 c0be
000000d0: 42a1 a1bf 7057 bb3e 56ca 5ebd 2e1e 253e
000000e0: 7ef6 fb3e 2259 1abe 3c9a 3cbf df92 66bd
000000f0: cd10 ddbe adfa b73e 0f83 08c0 465b 283e
00000100: 35ba 05c0 242f 8b3e 8482 cbbf 0c3a efbe
00000110: 1396 4ebd 4c99 203f 2ee2 b8bf 8d4b 003f
00000120: 0fbf 1abd 1db5 68be 593c 1e3e ab7d b23b
00000130: 0742 96bf 4f53 b03e 2343 02be 4a85 8dbe
00000140: 77a1 de3e 991b b6be 3d58 9e3e 6367 4dbe
00000150: 13cc 49bd 7e7c 41bf ede2 24bf e055 17be
00000160: d5c8 f2bd a7c5 4c3e 529c aabe ed0f b4be
00000170: ff15 ea3e f36a 8bbf f077 5ebf 7705 d83e
00000180: bc90 16be 1e60 acbd e470 9f3e 1355 87bd
00000190: bb34 d5bf afee 363e 3518 803e 64bf 32bf
000001a0: 05dd 0ebd fa19 9abe 6ffe 303e f1a8 e8bd
000001b0: 5559 bebd 54d5 c4be b2f1 93bf ad66 ca3e
000001c0: 48a4 193d 6294 953e 0b46 013f 3386 6cbe
000001d0: e138 27bf ddde 04bf 6192 843e 066d 2abf
000001e0: 5a11 cc3e 3b72 1a3e b05b b73e fd13 a3be
000001f0: d955 60bf 77a2 1bc0 b882 013f a107 a4bf
00000200: 46c9 adbe d72d e1bd 9e82 e8be d578 973d
00000210: 7aa1 1fbf 98da f03e 01b4 47bf 2fa9 a23e
00000220: 5be2 143f 212a 9e3b be82 293c 93c9 d73d
00000230: b4fb 1d3e 7d4f 29bf 85a5 04c0 8866 3c3d
00000240: 2458 81bf 9118 903e 0681 d2bf 90aa bfbe
00000250: a045 a33e 34fa 1bbf 4254 63bf 486f 353f
00000260: 3c94 083f 38f9 88be aef6 d03e 7850 c4be
00000270: ffcc e53e ba16 abbf f71e fcbe 6579 bdbf
00000280: 7495 a43e 378f 8c3e 6c7f f43e e03f 4bbe
00000290: 3554 2bbf 3535 88bf 92fa a43e 334a c5bf
000002a0: d3a6 5d3e 1dc4 17be faaa 44be d27c abbe
000002b0: acd5 82be 1b52 553e 2277 dfbe 17bf e5bd

l4.bias f4 [22]
0.32707998 0.12815987 -0.044254355 -0.6048922 0.037201654 -0.108416654 0.08562548 0.0054001766
-0.24396423 -0.23783958 -0.20988834 0.4507931 -0.16711089 -0.22684179 0.039430026 -0.21469602
-0.41083533 0.15920223 0.45004404 0.51781434 0.033367317 0.16342902
00000000: 0777 a73e 573c 033e 0e44 35bd 37da 1abf
00000010: c360 183d 8d09 debd 695c af3d f7f3 b03b
00000020: c2d1 79be 388c 73be f8ec 56be 5ace e63e
00000030: 1e1f 2bbe 3749 68be 6181 213d 46d9 5bbe
00000040: 0259 d2be e905 233e 2c6c e63e 7b8f 043f
00000050: 2bac 083d f059 273e
